bot/model_repository/model_1/1/model.pt (torch, 29792 bytes, 2 tensors)

weight f4 [5, 1200]
0	0xbad9ff7c	-0.0016631926
1	0xbcd5da4d	-0.02610507
2	0x3c1c2a8c	0.009531628
3	0xbc3e9cb5	-0.011634042
4	0xbc495afc	-0.012289759
5	0x3c080a7d	0.008303282
6	0xbc885475	-0.016641835
7	0x3a17d8fe	0.0005792527
8	0x3b4f0741	0.0031590017
9	0x3b360bb7	0.0027777979
10	0x3c6ed5ed	0.014577371
11	0x3c8ddfa9	0.017318564
12	0x3c787775	0.0151651995
13	0x3ce95782	0.02848411
14	0x3b2543f0	0.0025217496
15	0xbb8e0469	-0.004334022
16	0xbca285bb	-0.019839158
17	0x3ce7afb1	0.028282018
18	0x3cbb8e7a	0.022895087
19	0x3c57e5c5	0.01317734
20	0xbcaf1e9b	-0.021376899
21	0xbc8306bd	-0.015994424
22	0xbc341b01	-0.010992766
23	0xb94875aa	-0.0001911732
24	0x3b2e172b	0.0026564102
25	0x3cc6fe91	0.024291309
26	0xbba7be0b	-0.0051190904
27	0x3c86fa71	0.016476842
28	0x3cb661e0	0.022263467
29	0x3c8d1fbc	0.017227046
30	0xbcc1ab0b	-0.02364113
31	0x3c82f857	0.015987558
32	0x3ccb18a1	0.024792017
33	0xbcaa8544	-0.0208155
34	0x3cd0cbc9	0.025487797
35	0xbc5e31ce	-0.013561679
36	0xba8d64f9	-0.0010787538
37	0xbac013ff	-0.0014654397
38	0xbb92c2f4	-0.0044788066
39	0x3c881740	0.016612649
40	0xbc13e5bc	-0.009026941
41	0x3c3f88f5	0.011690368
42	0x3c9e9e7f	0.019362686
43	0xbbfc445a	-0.007698578
44	0xbca47bab	-0.0200785
45	0xbc08b008	-0.00834275
46	0x3cc1256b	0.023577413
47	0x3c67e7fd	0.014154431
48	0x3c4dbac9	0.01255674
49	0x3b2a2fb7	0.0025968382
50	0x3c3078bc	0.010770973
51	0xbcd4da85	-0.025983104
52	0x3c54114c	0.012943577
53	0xbb07db59	-0.0020730107
54	0xbb9f2b7a	-0.0048574777
55	0x39d02ad1	0.00039704752
56	0x3c6662a0	0.0140616
57	0x3c3b48e2	0.011430951
58	0x3c261dc9	0.010138937
59	0xbc9bd606	-0.019022953
60	0x3c267e6f	0.01016198
61	0x3b288008	0.0025711078
62	0x3cd3ada4	0.025839634
63	0x3ccb0c5c	0.024786167
64	0x3c5bb8c8	0.0134107545
65	0xbce825e2	-0.028338376
66	0x3c9b23aa	0.018937904
67	0xbb8b5478	-0.004252013
68	0xbc93006d	-0.017944539
69	0x3aa48cfa	0.0012554221
70	0xbc2ce456	-0.010552486
71	0xbc862b87	-0.016378177
72	0x3c59d8e0	0.013296336
73	0x3ce9470e	0.028476264
74	0x3cae9b5c	0.021314315
75	0x3ba62db5	0.0050713667
76	0x3baa5753	0.005198398
77	0x3c516ec4	0.012782756
78	0xbc41d79e	-0.011831192
79	0xbca4c49e	-0.020113286
80	0xbbaba3c3	-0.005238028
81	0x3ba18a0a	0.0049297856
82	0xbc2fba5a	-0.010725582
83	0xbcb5e1c3	-0.022202378
84	0x3b3efe2d	0.00291432
85	0xbc781bf3	-0.015143382
86	0x3c901442	0.017587785
87	0xbb18e558	-0.002333006
88	0x3c559fdc	0.013038602
89	0x3c09b2b3	0.008404422
90	0xbcde2083	-0.027115112
91	0x3cd6cd15	0.026220838
92	0x3b186a32	0.0023256657
93	0xbce55d35	-0.027998546
94	0x3c5b08b4	0.013368774
95	0x3cc50384	0.024049528
96	0x3ce89bd5	0.028394619
97	0xbc1ed7ca	-0.009695003
98	0xbcb25197	-0.02176742
99	0x3b5f90ca	0.00341134
100	0x3c9cb55b	0.019129446
101	0xbcd8aef4	-0.026450612
102	0x3c22192a	0.009893695
103	0xbbb5045b	-0.005524201
104	0x3bac7b51	0.005263724
105	0xba7bcbc5	-0.0009605254
106	0xbc4d0712	-0.012513893
107	0x3bfc8d03	0.0077072396
108	0x36f29a43	7.2301204e-06
109	0x3cdf2621	0.027239861
110	0x3b783303	0.0037872202
111	0xbccd0645	-0.025027404
112	0xbc862543	-0.01637519
113	0x3ccbc2fc	0.02487325
114	0x3c0a7eb1	0.008453057
115	0x3ccf591b	0.025311043
116	0x3c9313e6	0.017953824
117	0x3c9ea791	0.019367011
118	0x3c180989	0.009279617
119	0xbc9d5132	-0.019203756
120	0x3c956771	0.018237801
121	0x3cc08033	0.02349863
122	0x3cc8fcb6	0.024534564
123	0x3c79d3cd	0.015248251
124	0xbc735ccc	-0.0148536675
125	0xbc8e2f9e	-0.01735669
126	0xb8b7e2d5	-8.768371e-05
127	0x3c70dda5	0.014701282
128	0xbc51138b	-0.012761007
129	0xbc432a81	-0.011911989
130	0x3ceaebec	0.02867695
131	0xbc879fc4	-0.016555674
132	0xbc7c06d2	-0.015382485
133	0x3ce0b8bb	0.027431836
134	0xbc774c38	-0.015093856
135	0xbceb27b5	-0.028705457
136	0x3c11a518	0.008889459
137	0xbcbf8667	-0.023379518
138	0x3cbe966f	0.023265092
139	0x3a4bdc4e	0.00077766634
140	0xbbda94f6	-0.0066705896
141	0x3bf86f60	0.0075816363
142	0xbc7a2721	-0.015268118
143	0x3cba2a6b	0.022725305
144	0x3c08aad5	0.008341511
145	0x3c6a9186	0.014316922
146	0xbc01995c	-0.007910099
147	0x3c927ca3	0.017881697
148	0xbc299f61	-0.01035294
149	0xbc60ce55	-0.013721068
150	0xb963a8f8	-0.00021711353
151	0x3cd281f2	0.025696728
152	0x3c540207	0.0129399365
153	0xbbffe736	-0.007809545
154	0x3cd274cc	0.025690459
155	0x3c6f1c4e	0.014594151
156	0xba8389f4	-0.001003562
157	0xbc91f095	-0.017814914
158	0xbc4ac9ad	-0.012377185
159	0xbc211687	-0.009832031
160	0x3c0427ee	0.008066161
161	0xbc6d435b	-0.014481391
162	0xbc171927	-0.009222305
163	0xbcd06a58	-0.025441334
164	0xbcb6548e	-0.022257116
165	0xbba9d9a2	-0.0051834146
166	0x3c8565d6	0.01628391
167	0x3bfa2aaa	0.0076344805
168	0x3cadd8f0	0.021221608
169	0x3ceb6715	0.028735677
170	0xbc392269	-0.011299708
171	0x3c539209	0.012913235
172	0x3cb72ffb	0.022361746
173	0xbca57c51	-0.02020088
174	0xbcebd036	-0.028785806
175	0xbc326876	-0.010889163
176	0x3ba4cdfc	0.005029438
177	0xbcb5ee71	-0.022208424
178	0x3bb0adbc	0.0053918045
179	0xbca4d14a	-0.020119328
180	0x3ce36051	0.027755888
181	0xbc8ebce7	-0.01742406
182	0xbb9714f4	-0.004610652
183	0xbc2ac127	-0.010422028
184	0x3ccf1354	0.025277771
185	0xbacf554f	-0.0015818271
186	0xbb8bef93	-0.004270503
187	0x3caad8e3	0.020855373
188	0xbbe34c6b	-0.0069366
189	0xba1d3eb5	-0.0005998419
190	0x3b941af7	0.004519816
191	0xbce8fccb	-0.028440854
192	0x3c40c597	0.011765859
193	0x3cea7e57	0.028624697
194	0x3cb9d4e7	0.022684528
195	0x3c389d2c	0.011267941
196	0x3bfc1ebc	0.0076940935
197	0x3cb6351e	0.022242125
198	0x3c81b3db	0.015832832
199	0xbc3d9783	-0.011571768
200	0x3c817156	0.015801113
201	0xbbe78959	-0.0070659337
202	0x3cb2e442	0.021837357
203	0x3c2e485f	0.010637372
204	0x3c217fc3	0.009857121
205	0x39c99af5	0.0003845316
206	0x3b04f75c	0.002028904
207	0x3c12fe6b	0.008971791
208	0xbc101b9d	-0.008795646
209	0x3c5e7394	0.013577361
210	0x3b9b8570	0.0047461316
211	0x3bfaab87	0.007649842
212	0x3bb7a3d0	0.005604245
213	0x3c931b97	0.017957492
214	0xbcdddafc	-0.027081959
215	0x3ca7f1a5	0.020500967
216	0x3cd3b1ad	0.025841558
217	0xbc5b220d	-0.013374818
218	0x3c8f2263	0.017472452
219	0x3cb196e4	0.021678396
220	0xbbd8187d	-0.006594716
221	0xbbc0e618	-0.0058868043
222	0xbce02ec0	-0.027366042
223	0x3c478253	0.012177068
224	0x3ce3084b	0.027713915
225	0xbc2fa35c	-0.0107201
226	0x3cb710a2	0.022346798
227	0xbc5dfa77	-0.013548485
228	0xbb5d1c0e	-0.0033738646
229	0xbb8ea954	-0.0043536816
230	0x3c98e4cc	0.018663786
231	0xbc12e8ee	-0.008966668
232	0x3bfed2a2	0.007776574
233	0x3ca4be0d	0.020110155
234	0xbc11879e	-0.008882431
235	0xbc9dbf52	-0.019256268
236	0xbc5533e8	-0.013012864
237	0x3c8c4d6c	0.017126761
238	0x3ca1c41b	0.01974683
239	0x3c1caf4f	0.009563281
240	0xbc16fd36	-0.009215644
241	0xbba266ef	-0.0049561183
242	0x3b5ce9d3	0.0033708706
243	0x3c7c3b12	0.015394943
244	0xbc113e6d	-0.008864981
245	0x3c01ae60	0.007915109
246	0xbc4c451c	-0.012467649
247	0x3cb65347	0.022256507
248	0x3bc26b00	0.0059331656
249	0xbc9fc3e4	-0.019502588
250	0xbaecabf2	-0.0018056615
251	0xbcbee58f	-0.023302821
252	0x3c85a621	0.016314568
253	0x3c68d82b	0.014211695
254	0x3cc7391f	0.02431923
255	0xbbc57235	-0.0060255774

bias f4 [5]
0	0xbb9bccb6	-0.004754628
1	0x3bb827cc	0.0056199785
2	0xbbaea87d	-0.005330144
3	0xbcd0e4b9	-0.025499688
4	0x3cd80de7	0.026373817
